Training data shape :  (9850, 128, 128, 3) (9850,)
Total number of outputs :  4251
Output classes :  ['new_whale' 'w_0013924' 'w_001ebbc' ..., 'w_ffcd98e' 'w_ffda8b2'
 'w_ffdab7a']
Original label 0 :  w_9e22ded
After conversion to categorical ( one-hot ) :  [0 0 0 ..., 0 0 0]
_________________________________________________________________
Layer (type)                 Output Shape              Param #   
=================================================================
conv2d_1 (Conv2D)            (None, 128, 128, 32)      896       
_________________________________________________________________
conv2d_2 (Conv2D)            (None, 126, 126, 32)      9248      
_________________________________________________________________
max_pooling2d_1 (MaxPooling2 (None, 63, 63, 32)        0         
_________________________________________________________________
dropout_1 (Dropout)          (None, 63, 63, 32)        0         
_________________________________________________________________
conv2d_3 (Conv2D)            (None, 63, 63, 64)        18496     
_________________________________________________________________
conv2d_4 (Conv2D)            (None, 61, 61, 64)        36928     
_________________________________________________________________
max_pooling2d_2 (MaxPooling2 (None, 30, 30, 64)        0         
_________________________________________________________________
dropout_2 (Dropout)          (None, 30, 30, 64)        0         
_________________________________________________________________
conv2d_5 (Conv2D)            (None, 30, 30, 64)        36928     
_________________________________________________________________
conv2d_6 (Conv2D)            (None, 28, 28, 64)        36928     
_________________________________________________________________
max_pooling2d_3 (MaxPooling2 (None, 14, 14, 64)        0         
_________________________________________________________________
dropout_3 (Dropout)          (None, 14, 14, 64)        0         
_________________________________________________________________
flatten_1 (Flatten)          (None, 12544)             0         
_________________________________________________________________
dense_1 (Dense)              (None, 512)               6423040   
_________________________________________________________________
dropout_4 (Dropout)          (None, 512)               0         
_________________________________________________________________
dense_2 (Dense)              (None, 4251)              2180763   
=================================================================
Total params: 8,743,227
Trainable params: 8,743,227
Non-trainable params: 0
_________________________________________________________________
Epoch 1/20
  32/9850 [..............................] - ETA: 589s - loss: 16.1181 - acc: 0.0000e+00
…
